…
loaded via this mode unless they are explicitly allowlisted by the user via `torch.serialization.add_safe_globals`. We recommend you start setting `weights_only=True` for any use case where you don't have full control of the loaded file. Please open an issue on GitHub for any issues related to this experimental feature.
  net.load_state_dict(torch.load(net_model))  # using best model
Namespace(train_size=2000, val_size=1000, test_size=1000, conv_type='valid', net_type='Net2', image_size=32, offset1=7, offset2=23, fluctuation=6, n_repeat=10, epochs=50, batch_size=200)
Round  :   1
Net(
  (conv1): Conv2d(3, 32, kernel_size=(3, 3), stride=(1, 1), bias=False)
  (conv2): Conv2d(32, 32, kernel_size=(3, 3), stride=(2, 2), bias=False)
  (conv3): Conv2d(32, 64, kernel_size=(3, 3), stride=(2, 2), bias=False)
  (conv4): Conv2d(64, 64, kernel_size=(3, 3), stride=(2, 2), bias=False)
  (fc1): Linear(in_features=64, out_features=2, bias=True)
  (fc2): Linear(in_features=256, out_features=64, bias=True)
)
Model size: 320.133KB
Training is starting...
Epoch:   1
Loss: 0.6918 Acc: 0.7665
val loss:  0.0034454379677772524
Accuracy of the network on the val images: 100.0000 %
Epoch:   2
Loss: 0.6235 Acc: 1.0000
val loss:  0.001396364063024521
Accuracy of the network on the val images: 100.0000 %
Epoch:   3
Loss: 0.1165 Acc: 1.0000
val loss:  0.00015970852971076966
…
loaded via this mode unless they are explicitly allowlisted by the user via `torch.serialization.add_safe_globals`. We recommend you start setting `weights_only=True` for any use case where you don't have full control of the loaded file. Please open an issue on GitHub for any issues related to this experimental feature.
  net.load_state_dict(torch.load(net_model))  # using best model
Namespace(train_size=2000, val_size=1000, test_size=1000, conv_type='sconv', net_type='Net2', image_size=32, offset1=7, offset2=23, fluctuation=6, n_repeat=10, epochs=50, batch_size=200)
Round  :   1
Net(
  (conv1): Conv2d(3, 32, kernel_size=(3, 3), stride=(1, 1), padding=(1, 1), bias=False)
  (conv2): Conv2d(32, 32, kernel_size=(3, 3), stride=(2, 2), padding=(1, 1), bias=False)
  (conv3): Conv2d(32, 64, kernel_size=(3, 3), stride=(2, 2), padding=(1, 1), bias=False)
  (conv4): Conv2d(64, 64, kernel_size=(3, 3), stride=(2, 2), padding=(1, 1), bias=False)
  (fc1): Linear(in_features=64, out_features=2, bias=True)
  (fc2): Linear(in_features=1024, out_features=64, bias=True)
)
Model size: 512.133KB
Training is starting...
Epoch:   1
Loss: 0.6923 Acc: 0.6020
val loss:  0.003448378264904022
Accuracy of the network on the val images: 100.0000 %
Epoch:   2
Loss: 0.6006 Acc: 1.0000
val loss:  4.19785026460886e-05
Accuracy of the network on the val images: 100.0000 %
Epoch:   3
Loss: 0.0024 Acc: 1.0000
val loss:  3.1707656453363597e-06
…
loaded via this mode unless they are explicitly allowlisted by the user via `torch.serialization.add_safe_globals`. We recommend you start setting `weights_only=True` for any use case where you don't have full control of the loaded file. Please open an issue on GitHub for any issues related to this experimental feature.
  net.load_state_dict(torch.load(net_model))  # using best model
Namespace(train_size=2000, val_size=1000, test_size=1000, conv_type='fconv', net_type='Net2', image_size=32, offset1=7, offset2=23, fluctuation=6, n_repeat=10, epochs=50, batch_size=200)
Round  :   1
Net(
  (conv1): Conv2d(3, 32, kernel_size=(3, 3), stride=(1, 1), padding=(2, 2), bias=False)
  (conv2): Conv2d(32, 32, kernel_size=(3, 3), stride=(2, 2), padding=(2, 2), bias=False)
  (conv3): Conv2d(32, 64, kernel_size=(3, 3), stride=(2, 2), padding=(2, 2), bias=False)
  (conv4): Conv2d(64, 64, kernel_size=(3, 3), stride=(2, 2), padding=(2, 2), bias=False)
  (fc1): Linear(in_features=64, out_features=2, bias=True)
  (fc2): Linear(in_features=2304, out_features=64, bias=True)
)
Model size: 832.133KB
Training is starting...
Epoch:   1
Loss: 0.6922 Acc: 0.6305
val loss:  0.003448665916919708
Accuracy of the network on the val images: 100.0000 %
Epoch:   2
Loss: 0.6069 Acc: 1.0000
val loss:  3.938170382753015e-05
Accuracy of the network on the val images: 100.0000 %
Epoch:   3
Loss: 0.0022 Acc: 1.0000
val loss:  2.8563177911564706e-06
…
ded via this mode unless they are explicitly allowlisted by the user via `torch.serialization.add_safe_globals`. We recommend you start setting `weights_only=True` for any use case where you don't have full control of the loaded file. Please open an issue on GitHub for any issues related to this experimental feature.
  net.load_state_dict(torch.load(net_model))  # using best model
Namespace(train_size=2000, val_size=1000, test_size=1000, conv_type='circular', net_type='Net2', image_size=32, offset1=7, offset2=23, fluctuation=6, n_repeat=10, epochs=50, batch_size=200)
Round  :   1
Net(
  (conv1): Conv2d(3, 32, kernel_size=(3, 3), stride=(1, 1), padding=(2, 2), bias=False, padding_mode=circular)
  (conv2): Conv2d(32, 32, kernel_size=(3, 3), stride=(2, 2), padding=(2, 2), bias=False, padding_mode=circular)
  (conv3): Conv2d(32, 64, kernel_size=(3, 3), stride=(2, 2), padding=(2, 2), bias=False, padding_mode=circular)
  (conv4): Conv2d(64, 64, kernel_size=(3, 3), stride=(2, 2), padding=(2, 2), bias=False, padding_mode=circular)
  (fc1): Linear(in_features=64, out_features=2, bias=True)
  (fc2): Linear(in_features=2304, out_features=64, bias=True)
)
Model size: 832.133KB
Training is starting...
Epoch:   1
Loss: 0.6919 Acc: 0.6460
val loss:  0.0034427517056465147
Accuracy of the network on the val images: 100.0000 %
Epoch:   2
Loss: 0.5154 Acc: 1.0000
val loss:  1.3770799618214368e-05
Accuracy of the network on the val images: 100.0000 %
Epoch:   3
Loss: 0.0012 Acc: 1.0000
val loss:  2.3794177686795594e-06
…
aded via this mode unless they are explicitly allowlisted by the user via `torch.serialization.add_safe_globals`. We recommend you start setting `weights_only=True` for any use case where you don't have full control of the loaded file. Please open an issue on GitHub for any issues related to this experimental feature.
  net.load_state_dict(torch.load(net_model))  # using best model
Namespace(train_size=2000, val_size=1000, test_size=1000, conv_type='reflect', net_type='Net2', image_size=32, offset1=7, offset2=23, fluctuation=6, n_repeat=10, epochs=50, batch_size=200)
Round  :   1
Net(
  (conv1): Conv2d(3, 32, kernel_size=(3, 3), stride=(1, 1), padding=(2, 2), bias=False, padding_mode=reflect)
  (conv2): Conv2d(32, 32, kernel_size=(3, 3), stride=(2, 2), padding=(2, 2), bias=False, padding_mode=reflect)
  (conv3): Conv2d(32, 64, kernel_size=(3, 3), stride=(2, 2), padding=(2, 2), bias=False, padding_mode=reflect)
  (conv4): Conv2d(64, 64, kernel_size=(3, 3), stride=(2, 2), padding=(2, 2), bias=False, padding_mode=reflect)
  (fc1): Linear(in_features=64, out_features=2, bias=True)
  (fc2): Linear(in_features=2304, out_features=64, bias=True)
)
Model size: 832.133KB
Training is starting...
Epoch:   1
Loss: 0.6914 Acc: 0.6625
val loss:  0.0034258477687835695
Accuracy of the network on the val images: 100.0000 %
Epoch:   2
Loss: 0.3797 Acc: 1.0000
val loss:  9.809628361836077e-06
Accuracy of the network on the val images: 100.0000 %
Epoch:   3
Loss: 0.0010 Acc: 1.0000
val loss:  2.3902748653199523e-06
…
ed via this mode unless they are explicitly allowlisted by the user via `torch.serialization.add_safe_globals`. We recommend you start setting `weights_only=True` for any use case where you don't have full control of the loaded file. Please open an issue on GitHub for any issues related to this experimental feature.
  net.load_state_dict(torch.load(net_model))  # using best model
Namespace(train_size=2000, val_size=1000, test_size=1000, conv_type='replicate', net_type='Net2', image_size=32, offset1=7, offset2=23, fluctuation=6, n_repeat=10, epochs=50, batch_size=200)
Round  :   1
Net(
  (conv1): Conv2d(3, 32, kernel_size=(3, 3), stride=(1, 1), padding=(2, 2), bias=False, padding_mode=replicate)
  (conv2): Conv2d(32, 32, kernel_size=(3, 3), stride=(2, 2), padding=(2, 2), bias=False, padding_mode=replicate)
  (conv3): Conv2d(32, 64, kernel_size=(3, 3), stride=(2, 2), padding=(2, 2), bias=False, padding_mode=replicate)
  (conv4): Conv2d(64, 64, kernel_size=(3, 3), stride=(2, 2), padding=(2, 2), bias=False, padding_mode=replicate)
  (fc1): Linear(in_features=64, out_features=2, bias=True)
  (fc2): Linear(in_features=2304, out_features=64, bias=True)
)
Model size: 832.133KB
Training is starting...
Epoch:   1
Loss: 0.6922 Acc: 0.6315
val loss:  0.003447667419910431
Accuracy of the network on the val images: 100.0000 %
Epoch:   2
Loss: 0.5798 Acc: 1.0000
val loss:  2.3121790029108523e-05
Accuracy of the network on the val images: 100.0000 %
Epoch:   3
Loss: 0.0016 Acc: 1.0000
val loss:  2.5978987105190753e-06
…
